depression_model.tflite (tflite, 3284 bytes, 5 tensors)

arith.constant f4 [1, 8]
000000 75 59 e7 bc 21 14 0c 3f e2 d4 89 bf 5d be 52 3f
       -0.028240899 0.54718214 -1.0768092 0.8232172
000010 7a 31 c9 3e 55 0b 66 bf cc 7c 15 bf c0 4b 03 3f
       0.3929556 -0.8986104 -0.5839355 0.5128746

arith.constant1 f4 [8, 16]
000000 be 05 01 bf 20 0d ab bd d0 37 de be 93 06 b9 be
       -0.50399387 -0.08352113 -0.43401957 -0.36137828
000010 14 3b 04 bf 93 9c b5 3e 90 c5 0e be ff 3b a2 3e
       -0.51652646 0.3547102 -0.13942552 0.31686398
000020 39 83 a4 3e 98 6e 8a be 43 b1 13 be b1 fe a1 be
       0.32131365 -0.270375 -0.14423089 -0.31639627
000030 de 64 7d bd 70 59 8c bb 22 3d 9d bd 26 00 3e 3e
       -0.061863773 -0.0042831227 -0.07677676 0.18554744
000040 85 6a e9 ba d0 c4 3f 3f 71 ca 06 3f e1 10 a5 be
       -0.0017808235 0.7490969 0.5265265 -0.3223944
000050 63 f7 91 bd 9f e4 69 3e ff ec 82 be 59 05 18 bd
       -0.071272634 0.22841118 -0.2557144 -0.037114475
000060 3a aa 0c 3f ec ae 27 3d e1 33 0a 3f fb 4f 80 3b
       0.54947245 0.040938303 0.5398541 0.0039157844
000070 8c c0 30 3f db 13 ac 3e fb fb bb be 23 cb 0d 3e
       0.69043803 0.336089 -0.36715683 0.13847022
000080 a8 de 14 bf 99 59 b0 be 1d 16 c5 be 09 5e d8 3e
       -0.58152246 -0.34443358 -0.38493434 0.42259243
000090 76 3b dc 3e 02 b8 c6 3e 04 eb 81 3e 10 10 e8 bc
       0.43014115 0.38812262 0.25374615 -0.028327972
0000a0 96 41 a7 be c2 da bd be 5a de f6 be da 86 00 bf
       -0.32667226 -0.3708096 -0.48216516 -0.5020577
0000b0 f7 cf 8e 3e 19 86 dd be d1 25 2c bd b1 70 7b 3e
       0.2789304 -0.4326637 -0.042028252 0.24554707
0000c0 9d 7a 26 3d a6 d4 3b 3c e1 4e cf 3e 4b fd 25 be
       0.040644277 0.011464274 0.40489867 -0.16209905
0000d0 a7 4c d4 3c c6 96 49 be 0c e8 4a bd ec 7b 0d 3f
       0.025915457 -0.19686422 -0.049537703 0.55267215
0000e0 ee bf 26 3e 3d fd 07 3f 95 5d 6d bd f3 35 af 3e
       0.16284153 0.53120786 -0.057950575 0.34220847
0000f0 18 f9 18 be 5a a8 30 3f aa ae 95 be af d6 67 be
       -0.14938772 0.69006884 -0.2923482 -0.22640489
000100 53 fd a1 3c 88 c8 10 3f e3 5f 00 3e 18 88 6d 3d
       0.019774115 0.56555986 0.12536578 0.057991117
000110 99 4a 69 3d a8 3b 5f 3e 47 13 6c be 6f 6e 33 3e
       0.056955907 0.21800101 -0.23054229 0.17522596
000120 71 9e d8 bd 56 b7 9b 3e 97 0c 00 3f 70 7d 98 3e
       -0.10577095 0.30413312 0.5001921 0.297832
000130 24 36 83 3e 6c a3 0a 3f 2f 2a fe be db 53 50 3e
       0.25627244 0.5415561 -0.4964156 0.20344488
000140 24 59 19 3e bd db 06 bf a1 91 a9 be c0 8d 81 3e
       0.1497541 -0.52679044 -0.3311892 0.2530346
000150 56 65 fc 3e f1 e0 17 3e cc 24 40 3e 0c 14 a4 bc
       0.49296063 0.14831902 0.18764037 -0.02002909
000160 ec cb b5 be 9a 29 ef 3d c8 ed df be ba 53 18 bf
       -0.35507143 0.11677857 -0.437361 -0.59502757
000170 82 63 cb be 8f c9 81 3e bf 50 cd 3d c7 3b 9d 3e
       -0.39724356 0.2534909 0.10025167 0.3070967
000180 54 58 0e be 7e 1c cb be b1 f8 cd be 77 a2 1e be
       -0.13900882 -0.39670175 -0.402288 -0.15491663
000190 b1 40 08 3f 3d f2 dc 3e 3c 70 39 3f 0f 5e 86 be
       0.5322371 0.43153563 0.7243688 -0.26243636
0001a0 51 51 06 3d d6 91 e0 bd a5 a6 bb be 2e 58 8b bd
       0.032792393 -0.10965316 -0.36650577 -0.06803928
0001b0 a5 c6 15 3e 44 6c b6 bd 76 d9 c6 3e 90 bd 84 3e
       0.14626558 -0.08907369 0.38837785 0.25925875
0001c0 89 5b ed 3e ec 15 91 3e 36 1b 00 3f 9b f0 d7 3d
       0.46358898 0.28337038 0.5004152 0.10543939
0001d0 27 29 e1 3d 04 55 0d bd 14 97 4a be 60 11 e4 3e
       0.10994177 -0.034504905 -0.19784194 0.44544506
0001e0 1a 9c 1d 3f cf 24 b3 3e dd 80 44 be db 39 76 3e
       0.6156632 0.3498902 -0.19189782 0.24045508
0001f0 18 1e fe 3e a7 45 c4 3e c2 f3 88 3e 74 c7 c7 be
       0.49632335 0.3833439 0.26748472 -0.39019358

sequential_1/dense_1_2/BiasAdd/ReadVariableOp f4 [8]
000000 f6 dc fe bc 83 54 37 3e 17 15 94 3e 61 3f 89 3e
       -0.031111222 0.17903332 0.2892234 0.26806167
000010 7a 47 fb bb 76 b7 4b 3e d4 43 32 3e b2 7c b4 3d
       -0.007668433 0.19894204 0.17408687 0.08812846

sequential_1/dense_1/BiasAdd/ReadVariableOp f4 [16]
000000 07 82 8d bc 07 c2 15 3e 41 5b b0 3e a4 5a 56 bb
       -0.017273916 0.14624797 0.3444462 -0.0032707835
000010 e5 71 1c 3e fe 86 b9 3d 33 18 76 3e 71 2a a5 3e
       0.15277822 0.09058951 0.24032669 0.32258943
000020 0b 4a da bd 9a ed 86 3e 59 64 80 bd 02 72 af 3e
       -0.10658654 0.2635315 -0.0626914 0.3426667
000030 cd d2 f2 3d 45 58 1d 3e 36 29 f6 bd 80 3e a7 3d
       0.11856613 0.15365703 -0.12019579 0.08166218

sequential_1/dense_1/MatMul f4 [16, 9]
000000 1f 92 89 3d ae 83 8f 3e 89 73 87 3e 94 6f 3d 3e
       0.067173235 0.2803015 0.26455334 0.18499595
000010 b3 34 bc 3d 9c 7b fe be 8b 3c 00 3e 4f 59 58 3e
       0.09189739 -0.4970368 0.12523095 0.21127819
000020 6a ef 91 bd f3 f1 82 be be 11 3b 3e 00 d0 7e 3e
       -0.07125743 -0.25575218 0.18268487 0.24884033
000030 08 7b 8d 3e 34 dc b1 be 84 1a 94 3d b9 55 39 3f
       0.27632928 -0.34738314 0.0723162 0.7239643
000040 24 d9 f9 3e 47 17 46 3e 71 6b 00 3f 26 82 d0 3e
       0.48798478 0.19344817 0.5016394 0.40724295
000050 22 61 9b 3e 60 ca 71 3e 15 14 4b 3f e7 23 80 3e
       0.30347544 0.23612356 0.7932752 0.2502739
000060 b3 63 65 3e 3b 31 d1 3e 25 64 f1 bd 6c c9 92 3d
       0.22401313 0.40857872 -0.11786679 0.071673244
000070 50 60 a5 bd 59 5f 04 bf df 20 77 3e 83 44 ef 3c
       -0.08075011 -0.5170799 0.24133633 0.029207474
000080 82 ab 29 be ab 10 ca be 5d 16 e8 be dd 85 0b bf
       -0.16569331 -0.39465842 -0.45329562 -0.54501134
000090 03 f1 ac be 20 b5 49 bf 72 fa 0d bd 6c 92 1b bf
       -0.33777627 -0.78792 -0.03466267 -0.607703
0000a0 29 2e 3c 3e e9 1e df 3d 1f c8 12 bf f4 4c 26 bf
       0.18376984 0.108945675 -0.5733661 -0.6496117
0000b0 9b 1f 0a bf bb da 4a 3e 3e 6e 21 bf 5b 64 aa be
       -0.53954476 0.19810002 -0.6305884 -0.3327969
0000c0 09 2e c3 be 14 51 1a 3b 5e 4f 90 be d8 4e 94 3c
       -0.3812106 0.0023546861 -0.28185552 0.018104002
0000d0 0d 3b 0a bf c3 86 87 be da 43 23 3e 0e 57 d1 be
       -0.53996354 -0.26470003 0.15943852 -0.4088673
0000e0 d5 48 cc bd 7c b1 9f be da a7 0d bf 5d 32 2e be
       -0.09974829 -0.31190097 -0.55334246 -0.170114
0000f0 e5 b7 0b bf f2 59 84 be 6e 54 8f be 2f 4d 51 3e
       -0.54577476 -0.25849873 -0.27994102 0.204396
000100 c4 b4 89 be 3f 50 d1 3e 16 37 0a 3f 47 15 38 3e
       -0.26895726 0.40881535 0.53990304 0.17976867
000110 f9 6f da 3e 78 38 03 3f 37 01 43 be 15 82 87 3e
       0.42663553 0.5125804 -0.19043432 0.26466432
000120 c2 27 dc 3e 6f 66 23 3f cf 00 75 be cf 78 ec bd
       0.42999083 0.63828176 -0.2392609 -0.1154648
000130 5e 2c 1c 3f 0c 3b 93 3d 1c 0b 39 be 26 96 ee 3d
       0.610052 0.07188997 -0.18070644 0.11649732
000140 e8 0e 0c be 32 39 b5 3e c5 69 bb 3e 29 9c 9a 3e
       -0.13677561 0.353952 0.36604133 0.30197266
000150 a1 00 e2 bc b8 98 41 be a9 01 2a 3f 75 aa d3 bd
       -0.02758819 -0.18905914 0.66408783 -0.103352465
000160 cd 8b 0b 3f b7 c8 25 3e be 62 13 be fa 46 03 3f
       0.54510194 0.16189848 -0.14393136 0.51280177
000170 78 45 ea 3d 55 42 4d be 84 0a ec 3e 45 04 a4 be
       0.11439031 -0.20044835 0.46101773 -0.32034507
000180 e9 ad a3 3d 07 12 78 bd df 93 c7 3d d1 81 9c 3e
       0.07992155 -0.060564067 0.09745001 0.30567792
000190 24 49 6c 3e b1 05 a5 3e 4f 28 33 be dd 58 0a 3f
       0.23074776 0.32230905 -0.17495845 0.54041845
0001a0 74 d8 13 3f 00 e9 2b 3d b0 54 29 3f 0b 6e 40 bd
       0.57752156 0.041970253 0.6614485 -0.046979945
0001b0 73 34 7e bd 98 dc d4 3e a6 58 6a 3d 5a 56 b0 3d
       -0.06206174 0.4157455 0.057213448 0.0861022
0001c0 fd 73 a3 3e 5d 18 d4 be 11 e4 cb 3d 98 e7 9e 3e
       0.3192443 -0.41424838 0.099556096 0.31036067
0001d0 f0 41 a3 3e 2b 9c c4 3e d0 02 ae be 68 f9 15 3e
       0.31886244 0.38400397 -0.3398652 0.14645922
0001e0 88 6d f6 bc b0 05 d8 3e e8 1f 71 3e c9 01 38 3d
       -0.030081525 0.4219184 0.23547328 0.044923577
0001f0 e6 d5 5c be 0f 8c 2e 3f a4 7a c2 be 83 20 be be
       -0.21565971 0.6818246 -0.37984192 -0.3713418
000200 e4 33 db be b2 df b4 bd ee eb a8 bd 40 54 ba be
       -0.42813027 -0.08831729 -0.08248125 -0.36392403
000210 3f 66 2c 3d 82 0f a7 3b 78 f9 ea bd 1a ad 0b bf
       0.042089697 0.005098284 -0.11473364 -0.5456101
000220 a7 ad f7 be 29 8f e6 be 98 f0 0d 3d 0c 8d 50 3d
       -0.48374674 -0.45031098 0.034653276 0.050915763
000230 ab 35 a9 be 70 35 71 bd 9e fe 08 bf 83 07 38 3e
       -0.33048758 -0.058888853 -0.53513515 0.17971615
